Model/Weight/Model_0_with_SAF.pkl (torch, 298663 bytes, 36 tensors)

feature0.0.weight f4 [8, 1, 3, 3]
00000000: 4fbf 8dbe c2e0 c63d d286 fabd bab1 39be
00000010: b678 0e3d bfc3 49be ae14 fe3d 116a 773e
00000020: 3758 4cbe 8d0e 893e 1329 213e 3b2a 5c3e
00000030: 36b6 a33e 9477 66bd 1ec7 193e 557b b53d
00000040: 0519 92bd 2c7d 87be afcb b0be ab26 87be
00000050: 184f 8c3d a215 86be 2caf 433e 2477 7c3e
00000060: 7200 a6bd ce27 e6bd b31a 653e e843 98bc
00000070: 7167 e9bc 45ad 8abe 3e97 763d b601 a3be
00000080: b37a c1be bd41 8ebe 4da7 753e cc5e 90bd
00000090: 8993 f0bc a3b1 5dbe b016 963d 9186 c3bc
000000a0: b934 59be c10c fb3a f3ea 5c3e da2c 08bd
000000b0: 2c8a a6be 8d50 f4bd 84ff a63e 2351 a0b9
000000c0: a3a5 a2be 2126 ebbd 05c8 133e e257 6dbe
000000d0: 17fe 2ebe 3fb3 a13d 17c0 1a3e 9162 843e
000000e0: ecbf 443e ef42 afbe dba2 133d 6b1a 413e
000000f0: 6540 6a3c e683 a5be f684 ab3d 09d5 99be
00000100: f327 4e3e 89d2 a43e 3efe eebc fab6 523e
00000110: 89ae 26be d1ba 443c ecfa 4c3c 949d a83d
-0.2768502 0.09710838 -0.12232746 -0.18134204 0.034783088 -0.19703577 0.12406288 0.24161555
-0.19955526 0.26768914 0.15738325 0.21500485 0.31974953 -0.056266382 0.15017363 0.08861414
-0.07133678 -0.26462686 -0.34530398 -0.2639669 0.068510234 -0.2618838 0.19109792 0.24654824
-0.08105554 -0.11238061 0.22373466 -0.018587068 -0.028491708 -0.2708532 0.06020283 -0.31837243
-0.37788925 -0.2778453 0.23989601 -0.07049331 -0.029367225 -0.21649794 0.07328546 -0.023867877
-0.21211518 0.0019153581 0.21574001 -0.0332459 -0.32527292 -0.11929426 0.32616818 -0.0003057803
-0.31766996 -0.11481882 0.1443177 -0.23178056 -0.17089115 0.078955166 0.15112339 0.2585645
0.19213837 -0.34230754 0.036043983 0.18857734 0.014297579 -0.32327193 0.0837497 -0.30045345
0.20132427 0.32191876 -0.029173966 0.20577613 -0.16277517 0.012007431 0.012510996 0.08233181

feature0.0.bias f4 [8]
00000000: 3fa9 fc37 cbb1 7336 7143 c6b8 a468 a73c
00000010: 3cd6 93bd cf6d 9e37 2721 ff3d 0e88 bbbd
3.0119552e-05 3.631331e-06 -9.453938e-05 0.020435639 -0.07218596 1.8886201e-05 0.12457495 -0.0915681

feature0.1.weight f4 [8]
00000000: 084d 813f 3b89 7b3f d960 873f e79f 803f
00000010: ae2f 7b3f 7c7d 823f 0fc5 7c3f 76f5 753f
1.0101633 0.9825627 1.057643 1.0048798 0.9811963 1.0194545 0.9873819 0.9607767

feature0.1.bias f4 [8]
00000000: 5f0b 733b 405a 3c3d b8a4 1a3d 7696 0bbc
00000010: 29d1 1ebd e3d4 633b 81d1 073d 587d ab3a
0.0037085635 0.045984507 0.037754744 -0.008519759 -0.03877369 0.0034764342 0.033158783 0.001308362

feature0.1.running_mean f4 [8]
00000000: 4246 2e3b c005 923a d2df d5bb 0d9a e83c
00000010: 046e 8bbd 074c a2ba b6e2 fa3d cd74 c5bd
0.002659217 0.001114063 -0.0065269256 0.02839377 -0.06808093 -0.0012382277 0.12250273 -0.096414186

feature0.1.running_var f4 [8]
00000000: c873 833e 877c 103f 4041 c83e 331b 533f
00000010: c493 943e 5020 9d3e 703c 493e daec 4c3e
0.25674272 0.56440014 0.39112282 0.8246338 0.29018986 0.30688715 0.19651961 0.20012227

feature0.3.weight f4 [16, 8, 3, 3]
00000000: 21f2 7e3c c621 99bc f8d8 95bd 10de 76bd
00000010: 822f b1bd 654f ef3c a1de d03c 1edf 29bb
00000020: 7cd5 bb3d ccf5 0b3d ac2f 693b 4e7e 023e
00000030: d643 99bd 3b1d 743d b9aa f03d 965f 3b3d
00000040: 6e41 093d b0f2 21bd 0eb5 b6bd 2bd1 e4bc
00000050: bc59 17bb 289b 31bd ed4a aabd 6d2e 16bd
00000060: 8170 b1bd ff25 ec3d 53f0 f0bc b061 9abd
00000070: 4dfd 983d f507 d2bc 06fb d63c 9e71 1b3d
00000080: aac6 abbd b4ab 94bc 3cba e23c e014 723d
00000090: c2f1 e0bd 0f47 b33d 45ee b53d 18e9 b93d
000000a0: 99d6 773d a687 c73d 28ea 58bd 82bf 83bd
000000b0: 16b6 ee3b 5e34 a6bc 6dfb 963d 5682 dfbd
000000c0: 9acf 22bc 522d a4bd 4387 d53d ff4d c1bd
000000d0: 9e30 ec3d 4c5f 54bc f553 813d 44b6 f33d
000000e0: be89 5cbd b689 9f3d 2954 a93d 2cbc adbd
000000f0: a5e8 d1bd 6acf 8e3c 547b debc f49b 90bd
00000100: 21c9 ab3d 9fd1 753d abe6 31bd 312d 833d
00000110: bb29 84bd 8a53 d8bc 9d8f a83d df59 e63c
00000120: cdf8 9d3d 0d11 393c 27b8 1dbd 1b50 a93d
00000130: 9c5e d93d 64e4 bd3c a7b4 a43d 9b66 01bd
00000140: 12b5 c7bd eb60 253d 19e5 fbbd e736 e6bc
00000150: 9664 30bd ebba 823d 3a5a cc3b 3d05 4f3d
00000160: bbd2 963d e296 e33d 9d94 233d 0542 61bd
00000170: dd00 79bd d9c9 8bbc c6f4 e1bd 2445 313d
00000180: 08c9 97bd 9df2 bbbd 55fa 063e caed f5bc
00000190: 4269 073d 7360 913d c7f0 a73d 20ef 543b
000001a0: 04d6 60bd 4cdb be3d 6718 8cbd bcd5 583d
000001b0: fd43 223d bf1d 923d 111d dcbd 7145 f1bc
000001c0: 7d62 04bd 3971 d3bd 2f85 75bd 277d a73d
000001d0: f776 1bbd 94fd a93d 78c8 683b 01e4 be3d
000001e0: e8b7 5dbd dcc1 b5bd addc a53c 6229 7fbd
000001f0: c2a4 e3bd 5997 3b3d e914 733d e115 c93d
00000200: 443b bebd 956a b9bd c6fc b0bd b44d 2d3d
00000210: e884 76bd e35a b43d b2b1 22bd b117 b7bd
00000220: 2b0b a23d 7757 023c 84ec 183d bb9f a73d
00000230: a973 8ebd 7119 923d 35f6 2abd dbe4 0dbd
00000240: 58c3 8cbd 4656 173d 99d4 b6bd d7e7 333d
00000250: 47ed a1bd 2ff5 39bb e867 e5bc 81db e23d
00000260: 46ae 123c 40e9 c6bb 41d6 433d 4fb9 d5bb
00000270: b3e1 d2bd 7142 51bd 6cd6 dd3d 152f 62bd
00000280: 89eb df39 7ec3 f3bd 9238 6cbc 0cd2 583c
00000290: 48e5 bebb e0e9 80bd e38f 7fbd 3c9f 05bd
000002a0: ef3f df3d 25cc 123d 0297 dfbd f8e2 8b3d
000002b0: ff5c e7bd 29a1 d33c b041 1dbb dcac 9f3c
000002c0: fea9 ce3d f808 41bd e918 9f3d 9f17 6fbd
000002d0: 198b c8bc 69cf b5bd dbea ef3d a804 073d
000002e0: 1e6f e13d a34e 183a 9c13 673c ab50 553c
000002f0: 8bce dfbc 0073 983d af5b b9bd ce2e dcbd
00000300: 0e4b 373d 8ae3 a0bd d77a a6bd 0c11 a03d
00000310: 17bd dc3d 7d4f babd 6570 b7bd c04a 59bd
00000320: 8da2 79bc 3a77 2b3d b8c8 68bd d3bd 3ebd
00000330: d649 8f3d c966 613d ffc4 a1bd 1e4a b13d
00000340: 429d c3bd 1e9b 9c3d 71c9 953d 5788 db3d
00000350: be60 633c 1958 143d 1c31 3f3c b987 eebd
00000360: f171 22bd 51e1 79bd 1c74 c2bd 2ad8 d6bd
00000370: 6d55 cb3d 0a49 043d a24b 50bd ed41 30bc
00000380: c3f5 e1bb 409f ddbd 4c5c 34bb 6f41 673b
00000390: e0fe 1dbc bcbc 843d fc8c 813d 4abe 38bd
000003a0: fc6c bf3d 4703 87bd b00f 113e 5ec1 e03d
000003b0: 3cd2 06bc 5022 5abd faab d6bc cc96 f3bd
000003c0: ebcd 87bb b383 d6bd a941 9bbd a4d5 693d
000003d0: 411f 32bd a771 85bd 8c11 213d 1f2f 77bc
000003e0: 31dd 68bd 5918 d13d a4c6 ec3d abdf c53d
000003f0: e72c 2ebc 3d6d 8dbd eadd 85bc 1b3f fcbc
0.015560658 -0.018692862 -0.07316774 -0.06027037 -0.086516395 0.029212663 0.025496783 -0.0025920342
0.09171578 0.034169957 0.0035581393 0.12743494 -0.07483642 0.05959819 0.11751313 0.045745455
0.033509664 -0.039538085 -0.08921252 -0.02793177 -0.0023094257 -0.04336086 -0.08315072 -0.03666537
-0.086640365 0.11530685 -0.02941147 -0.07538164 0.07470188 -0.02563856 0.026242744 0.03795015
-0.083875015 -0.01814828 0.027676694 0.05910194 -0.10983612 0.08753788 0.08883337 0.09077662
0.06050739 0.0974267 -0.052957684 -0.064330116 0.00728489 -0.020288642 0.073721744 -0.109135315
-0.009937191 -0.08016457 0.1042619 -0.09438705 0.115327105 -0.012962174 0.06314842 0.11899999
-0.0538423 0.07789938 0.082680054 -0.084831566 -0.102494515 0.017432887 -0.027158417 -0.07060996
0.08387972 0.060014363 -0.043432873 0.06405104 -0.06453272 -0.026407022 0.08230517 0.028119026
0.077134706 0.011295569 -0.0385057 0.08267232 0.106137484 0.023180194 0.08042269 -0.031591993
-0.09751333 0.04037563 -0.12299556 -0.028102351 -0.043064676 0.06383308 0.006236342 0.050542105
0.073644124 0.11112763 0.03993665 -0.0549946 -0.06079184 -0.017064022 -0.11033015 0.04327883
-0.074113905 -0.09177134 0.13181432 -0.030020613 0.033059366 0.07098474 0.082002215 0.0032491162
-0.0548916 0.09319171 -0.06840592 0.052938208 0.03961562 0.0713458 -0.107477315 -0.029452058
-0.03232049 -0.1032433 -0.059941467 0.08178168 -0.03795525 0.08300319 0.003551988 0.09320832
-0.054130465 -0.08874866 0.020246828 -0.062295325 -0.111154094 0.045798633 0.059346113 0.09818626
-0.09288648 -0.09053532 -0.08641963 0.04231043 -0.060185343 0.08806398 -0.039720245 -0.08940066
0.07912286 0.007955424 0.037334934 0.08184763 -0.06955654 0.07133759 -0.041738708 -0.03464208
-0.06873196 0.03694751 -0.089272685 0.04392227 -0.07906585 -0.00283749 -0.028003648 0.11077023
0.008952683 -0.006070286 0.04781175 -0.0065223346 -0.10296955 -0.051088754 0.10831913 -0.055220682
0.00042709362 -0.119025216 -0.014417784 0.013233673 -0.0058256723 -0.06294608 -0.06239308 -0.03262256
0.10900866 0.03583922 -0.10917474 0.068304 -0.112970345 0.025833683 -0.0023995452 0.019491605
0.10091017 -0.047127694 0.07768423 -0.058372136 -0.02448039 -0.08877451 0.11714717 0.032963425
0.11007522 0.00058100576 0.014103796 0.013019721 -0.027320167 0.074438095 -0.090506904 -0.10751115
0.044749312 -0.078559 -0.081288986 0.078157514 0.107782535 -0.090971924 -0.089569844 -0.053049803
-0.015236509 0.04186175 -0.056832045 -0.04656775 0.06996505 0.055029664 -0.07898902 0.08656715
-0.09551479 0.07646774 0.073138125 0.10719364 0.013878046 0.03621683 0.011669423 -0.11646981
-0.039659444 -0.061005894 -0.09494802 -0.10490449 0.09928403 0.032296218 -0.05085338 -0.010757905
-0.006895752 -0.1082139 -0.0027520834 0.0035286804 -0.0096432865 0.06481311 0.06325719 -0.04510335
0.09346959 -0.06592422 0.1416614 0.10974382 -0.008228835 -0.05325538 -0.026205052 -0.118939966
-0.0041444204 -0.104743384 -0.07580883 0.05708851 -0.043486837 -0.06515818 0.039323375 -0.015086918
-0.05685157 0.10209722 0.11561325 0.09661802 -0.010630823 -0.06905601 -0.016341168 -0.03079181

feature0.3.bias f4 [16]
00000000: 9c3c 0538 f718 5bb8 b81f a837 7233 12ba
00000010: d5d9 5d38 642b 21bb 5f92 2639 df36 8138
00000020: 213c 1738 06a1 f9b8 67c0 97b8 3618 9137
00000030: 8143 6538 6c5f 8d3b 14a7 8e38 9ecf 02b7
3.1766118e-05 -5.223692e-05 2.004193e-05 -0.0005577124 5.2893378e-05 -0.0024592513 0.00015885521 6.16142e-05
3.6057205e-05 -0.00011903238 -7.236079e-05 1.7296621e-05 5.4660723e-05 0.0043143537 6.8022084e-05 -7.7969435e-06

feature0.4.weight f4 [16]
00000000: c5bd 7e3f 0414 7b3f 47bd 7c3f 3820 843f
00000010: 5267 7e3f ceb0 813f acd2 823f e95e 7a3f
00000020: 50ac 7b3f 6c7d 7d3f 7074 7b3f 39f7 803f
00000030: 7392 793f f570 7f3f 9af0 7a3f c6aa 833f
0.99508315 0.98077416 0.98726314 1.0322332 0.99376404 1.0132082 1.0220542 0.9780107
0.98309803 0.99019504 0.98224545 1.0075446 0.9748909 0.99781734 0.9802338 1.0286491

feature0.4.bias f4 [16]
00000000: 91cc 72bb 7223 29bc bac8 c5bb 78c2 de3b
00000010: 73f8 83bc d5e2 853c 58fc 8abb b82f ed3b
00000020: cffa 4e3c 643a 99bb ee4f 863b 11ab 453b
00000030: 6041 e5bb 058d 23bc 69ea 0ebd 4797 d8bc
-0.00370482 -0.010323392 -0.0060358914 0.006798085 -0.01610968 0.016343514 -0.0042415075 0.0072383545
0.01263304 -0.00467615 0.004098884 0.0030161778 -0.0069963187 -0.009982352 -0.03489152 -0.026439322

feature0.4.running_mean f4 [16]
00000000: f1af a13d dfd8 fe3c 4962 9abd 1fc0 02be
00000010: c1b3 b6bc 36be 4b3b 478a f13c c9b3 24be
00000020: d1ce d2bb 7dae 2b3c cbb1 23be aa3d efbd
00000030: de4f 4d3e 31e3 29bd 5c7e 4a3e dd1e 0ebe
0.07894886 0.031109272 -0.07538278 -0.12768601 -0.02230251 0.0031088716 0.029484881 -0.16084208
-0.006433346 0.010478613 -0.15985791 -0.11681683 0.20049998 -0.041476432 0.19774765 -0.13878961

feature0.4.running_var f4 [16]
00000000: 8730 303e c811 833d d9ea f93d 8ba3 6d3d
00000010: 42a2 c03d c1c7 cb3d 8d9b 193d b94e 013e
00000020: 92c9 e13d 2834 ad3d 31ed e63d 87ce 593d
00000030: 31d0 653e 1578 9f3d 6d12 a93d ac8c 5f3e
0.17206012 0.06399876 0.12202997 0.058017295 0.09405948 0.099502094 0.03750186 0.12627687
0.110247746 0.08457214 0.112757094 0.053175475 0.224427 0.07786576 0.082554676 0.21831006

feature0.7.weight f4 [32, 16, 3, 3]
00000000: d61f 593d 344e 313d e75b 73bd 987d 9f3c
00000010: 465c bd3b 9a53 a3bd f50b 31bc 59e8 07bd
00000020: c798 f23b 5f4f 933d 55a1 083d 0b81 ad3d
00000030: a59a c23d d45d 133c 67bc 6d3d 067b 2a3d
00000040: df8d 2fbd 49e1 833d 6421 373d 5d8a 0b3d
00000050: 77ab 093d 056c 643d 649c bdbb 51aa 86bc
00000060: cc15 423c 2c9c 0cbd 0545 8b3c 28c5 b4bd
00000070: a056 14bd 6666 c1bc fbce 623c 9135 123d
00000080: 6379 93bc 3d30 c5bd 29da 0ebd 3ae2 e6bc
00000090: 6b84 20bd 2be3 b63d 2241 d33b a48f 533c
000000a0: 3bdd 1b3d c887 6f3c c882 c2bc 93ee bc3c
000000b0: d81f 17bd 30f7 5e3d 35d4 78bd e053 95bc
000000c0: 8777 ec3b f9a6 4fbd dabb 093d b6c4 3dbd
000000d0: 152f 623d a1a6 c6bc 27fb 143c 9ca3 23bd
000000e0: c5e6 3b3d 4a4e b23c 4244 9f3d ab6a 90bc
000000f0: 1a59 8a3d 9d08 393d 4172 143c 6130 cdbc
00000100: faf8 2e3c c166 c339 06cf 543d 147a 29bd
00000110: 91ee 9cbc d852 e63b 7a42 453c 20b0 9bbd
00000120: e9a2 52bc 2edd 81bc 1754 9ebd 1a87 c0bd
00000130: 53a3 aa3c 1336 a83d edac 873c 7e2d 6c3d
00000140: e266 8e3d 51e8 3f3d b420 d6bc d72d c2ba
00000150: 8f4a 3dbd 1ba4 acbd ddac 383d 2fe0 b23b
00000160: ee3e 6dbd cca2 7d3d 7fdf 3dbd d8e4 1cbd
00000170: e5c3 4b3d e9a7 88bd 99c9 22bd 428e 833a
00000180: 41c7 a9bc 9896 81bd 6a0f 6e3d dc98 95bd
00000190: adf6 d9ba 5b6e f23c 4448 31bd a4c7 463c
000001a0: 7cfd e7bc efbb 4dbd ea65 883d 599b 3b3d
000001b0: f6f4 263d 3a57 763d e1bf 63bd 70aa 333c
000001c0: ba59 883c f1a8 be3c c59e 17bd f76e 7ebc
000001d0: 91ae e03c 7349 7dbd 6783 1bbd 728d 9d3d
000001e0: 45a9 6d3d 1a3f e6bc 1c8c 913d 8890 91bd
000001f0: 998f 58bd af26 77bb 3141 5e3d d6ba 283d
00000200: 30c2 96bd 6401 1fbd 25ce 583a a34a d7bc
00000210: f1ae 913d c3aa d13c 5ad5 81bd b1a4 4bbd
00000220: ab09 573d 120c 0a3b e136 6abd 1130 943c
00000230: ec4e 88bd 16ad 74bd 536f 57bd 7cf0 7ebd
00000240: 3fbc 883b be46 0f3d 78cd 3b3d 9276 b3bb
00000250: 9712 a8bd cb23 72bd 7579 94bd ded7 943d
00000260: 9939 99bd 0330 5fbd 6f8e a0bd 3d12 efbc
00000270: 6cf3 86bd e9b1 393d 6c5e cebb e659 03bd
00000280: 55a5 c9bc 7d53 33bc 0f65 8f3b 6b14 72bc
00000290: 6f86 a93c b66d aa3d 4b1b 863d ea99 b33d
000002a0: 979c 9b3d b45e f63c fa8c a83d 78df 17bd
000002b0: d998 8e3d b457 8cbd 2bb4 80bd 9b2b 09bc
000002c0: 376a a7bd fde4 b53c 9724 583d af41 35bd
000002d0: 3d30 b2bc dc9e 66bd f6a0 9a3b 68bd 00bd
000002e0: d418 593c 19ae 56bc 2347 4fbc 9666 643d
000002f0: 49a1 57bd 04b3 c23c 02de 363c 3c5f 7a3d
00000300: 482f 783b 1143 9bbc 5ef9 f8bc 34eb 01bd
00000310: f5f8 32bd cf00 a7bd 6dbb 5f3d 0085 323d
00000320: 6da1 d73c 2eee 603d cb4d 843b e3f1 043d
00000330: 57a8 9f3c 0558 2c3d b316 0f3c 1163 cf3c
00000340: 585a 833a 02f3 633b 53b9 96bd 5e6f 603d
00000350: ca4e 26bd aad9 3f3c 22ec b03c 2b93 dabc
00000360: e7e9 04bd 93f1 f1bc 6b4c b0b8 9d06 30bc
00000370: e4cb 513c 6a2d 34bd 94ed 323d 64b8 053d
00000380: e08d fbbc 993c 313d 11b6 0dbd d464 97bd
00000390: 5ec0 3fbd 6881 7d3c d8be 1d3d d0f3 50bd
000003a0: 5800 4dbd 511a 95bd fd1d abbd 5c15 2abd
000003b0: faa9 efbc 23c7 b9bb 4dd7 e83c acd8 3bbb
000003c0: 04b5 833d 9197 eb3c a00a ec3c 7b85 94bd
000003d0: ed96 753d e5fe 233d 7103 963d 02fc 2a3d
000003e0: 8f5a 273d 137e 83bc dbc7 91bd d3bc 643d
000003f0: fb85 b03c 369f 2d3d c614 b1bd 2ba3 073d
0.053008877 0.04328747 -0.059413817 0.019469067 0.005778822 -0.0797493 -0.010806073 -0.03318057
0.0074034664 0.07192873 0.033356983 0.084718786 0.09502152 0.008994538 0.058041003 0.04162123
-0.04285991 0.06439454 0.04470958 0.0340675 0.033610787 0.055767078 -0.0057864655 -0.016438635
0.011846017 -0.034328625 0.017000685 -0.08826667 -0.036215425 -0.023608398 0.013843293 0.035695616
-0.018002218 -0.09628341 -0.034876022 -0.028184045 -0.039188784 0.089300476 0.0064469734 0.012912665
0.03805278 0.014619775 -0.023744002 0.02306298 -0.036895603 0.054434955 -0.06074925 -0.018228471
0.007216397 -0.050696347 0.033626415 -0.046330176 0.055220682 -0.024249377 0.0090930825 -0.039950952
0.045874376 0.021765847 0.07776691 -0.017628988 0.06755276 0.04517423 0.009060443 -0.025047483
0.010679478 0.00037269856 0.051955245 -0.04137619 -0.019156726 0.0070289187 0.012039775 -0.076019526
-0.012856224 -0.015852537 -0.077308826 -0.094007686 0.020829832 0.08213439 0.01656195 0.057660572
0.06953217 0.046852414 -0.026138641 -0.0014814687 -0.046213683 -0.08429738 0.04508673 0.0054588537
-0.057921343 0.061922833 -0.04635572 -0.03830418 0.049747366 -0.06672651 -0.03974304 0.0010036903
-0.020724894 -0.063275516 0.05812017 -0.07304546 -0.0016629301 0.029593637 -0.04328181 0.012132559
-0.028319113 -0.050228056 0.066600636 0.045802448 0.040760957 0.06014178 -0.05560291 0.010965928
0.016644347 0.023273917 -0.03701665 -0.015529386 0.02742699 -0.061837625 -0.037967112 0.07692994
0.058022756 -0.028106261 0.07106802 -0.07107645 -0.05287132 -0.0037712266 0.05426139 0.041193806
-0.07361257 -0.038819686 0.0008270464 -0.026280707 0.071134456 0.02559412 -0.06339522 -0.04971761
0.052499454 0.0021064323 -0.057181243 0.018089326 -0.06655678 -0.05973538 -0.0525964 -0.062241063
0.0041728313 0.034979574 0.045850247 -0.005476781 -0.08206671 -0.059116166 -0.072497286 0.07267736
-0.07481689 -0.054489147 -0.07839667 -0.029183501 -0.06589398 0.045335684 -0.006297877 -0.032068156
-0.02461497 -0.010945198 0.004376061 -0.014775376 0.020693986 0.08321707 0.065481745 0.08769591
0.075982265 0.030074455 0.08230014 -0.03707835 0.06962747 -0.068526655 -0.06284364 -0.008372213
-0.08174556 0.022203917 0.05276927 -0.044252094 -0.021751517 -0.056303844 0.004718895 -0.031430632
0.013250548 -0.013103032 -0.012651238 0.055761896 -0.052644048 0.023767002 0.011161329 0.06112598
0.0037869979 -0.018952878 -0.030392345 -0.031718448 -0.043694455 -0.08154451 0.054622103 0.04358387
0.026322091 0.054914646 0.004037594 0.032457244 0.01948945 0.04207613 0.008733439 0.025315793
0.0010021431 0.0034782295 -0.073595665 0.054793708 -0.040602483 0.01170961 0.021596972 -0.026681503
-0.03244963 -0.029534137 -8.406568e-05 -0.010743764 0.012804959 -0.043988623 0.043683603 0.03264655
-0.0307073 0.04327068 -0.03459746 -0.07392278 -0.046814315 0.015472747 0.03851208 -0.051013768
-0.050049156 -0.0728041 -0.08355329 -0.041524276 -0.029255856 -0.005669491 0.028422976 -0.0028663082
0.0643101 0.028758796 0.02881366 -0.07252022 0.059958387 0.04003801 0.07324875 0.04174424
0.040857848 -0.016051328 -0.071181975 0.05584414 0.021548262 0.042388164 -0.0864654 0.033114593

feature0.7.bias f4 [32]
00000000: 9441 90b8 24f8 a4b8 73c5 aa37 d84f 90b8
00000010: 9bbc f337 eaec 65b7 5142 6db9 60d0 8739
00000020: 3ce6 8337 e32f 5438 e4a0 3737 59fe b4b7
00000030: 5483 9eb4 be3f 9137 85da beb7 ce5f e2b8
00000040: 4cd2 6138 fbe3 de33 c174 2c39 03d4 c6b7
00000050: 24a6 f5b8 63a2 18b7 7207 0536 7378 1bb8
00000060: 8781 0e37 a10a b7b8 efd3 ddb7 c906 0939
00000070: 2ede 9a35 ca16 88b6 8d32 09b7 68c5 8ab6
-6.87867e-05 -7.866349e-05 2.0357524e-05 -6.881327e-05 2.9055684e-05 -1.37046245e-05 -0.00022626786 0.00025904458
1.5723628e-05 5.0589337e-05 1.094511e-05 -2.1576112e-05 -2.9525347e-07 1.731503e-05 -2.2751521e-05 -0.00010794365
5.3840035e-05 1.037915e-07 0.00016446692 -2.3702165e-05 -0.000117134565 -9.097715e-06 1.9822878e-06 -3.7067057e-05
8.4940175e-06 -8.7281e-05 -2.6443942e-05 0.00013067866 1.1538557e-06 -4.055769e-06 -8.177606e-06 -4.1357016e-06

feature0.8.weight f4 [32]
00000000: 773f 7e3f 92c7 7b3f 83fa 7c3f 863b 7f3f
00000010: 8017 7f3f 2004 7e3f 47ed 7e3f cf0e 7a3f
00000020: e287 7b3f 335a 7d3f bf3e 803f 51c6 7f3f
00000030: 7620 7d3f 240d 6b3f 68bd 7b3f 532d 803f
00000040: 2915 7d3f 3dd5 7c3f da5e 7d3f 5e79 7d3f
00000050: 6289 7d3f 9f5b 7f3f c7f6 7a3f 7cdc 7e3f
00000060: 7b0c 7d3f 45ea 793f 4d10 793f 8c93 7a3f
00000070: 5633 7e3f ae9a 833f f69d 813f 3836 7f3f
0.9931559 0.98351395 0.9881975 0.997002 0.99645233 0.99225044 0.99580806 0.97678846
0.98254216 0.9896576 1.0019149 0.9991198 0.98877656 0.91816926 0.98335886 1.0013832
0.9886041 0.98762876 0.98972857 0.99013317 0.99037755 0.9974918 0.980328 0.9955518
0.9884717 0.9762309 0.972905 0.9788139 0.9929708 1.028158 1.0126331 0.99692106

feature0.8.bias f4 [32]
00000000: 5d45 243c 7d08 9e3a 9dce 5a3a 8a33 9e3b
00000010: 1bcc e5bb fc8a dabb 4fa9 be3b 4f48 66bc
00000020: a2ec c2bb ae0f e73a 403c 9dbb adfd 0b3c
00000030: d40a bb3c b32d fdbc b0eb 48bc 7134 eabb
00000040: 0e72 0b3c cd25 683c 0ad5 3d3a 5fd3 d13b
00000050: e2fe 223c 97f8 94bb d6a1 4cbc f7b7 d6bb
00000060: c4d0 59bb bb35 ea3c 34bd ddbc d0f5 183b
00000070: a8f5 8ebb c294 3e3c 480b 2b3b ad93 d63a
0.010026303 0.0012056973 0.0008346828 0.0048279213 -0.0070128567 -0.0066694003 0.005818523 -0.014055326
-0.005948619 0.0017628574 -0.004798442 0.008544368 0.022832312 -0.03090558 -0.0122632235 -0.007147365
0.0085110795 0.014169169 0.0007241523 0.006403371 0.009948464 -0.004546236 -0.012489757 -0.006552692
-0.0033236006 0.028590074 -0.027067758 0.0023339875 -0.0043627806 0.011632146 0.0026099253 0.0016370915

feature0.8.running_mean f4 [32]
00000000: 0e29 41bc 2e7b d1bd 87fa b8bd 8076 f1bd
00000010: 2768 f3bd b4f0 a9bd 7c5b 65be 5196 22bc
00000020: 74a7 bfbd 3877 69be 334f 66be 36cb f2bd
00000030: d638 283d 63c1 4cbe 7918 20bd 72b4 75be
00000040: 2b91 b3bd 2c0b b43d f79e 22be 8e31 b7bd
00000050: aa9c 633e a119 abbd 2d90 4b3e e5bb bebd
00000060: ddc3 cfbd 4507 8abd 88ff 513d a0e4 95bd
00000070: c8e8 933e eba8 42bd b141 703d 5432 933c
-0.011789573 -0.10228573 -0.09032159 -0.1179018 -0.118851 -0.082978636 -0.2239818 -0.009923534
-0.09358111 -0.22799385 -0.2249115 -0.11855166 0.041069828 -0.19995646 -0.03908584 -0.23994616
-0.08767923 0.08791193 -0.15880953 -0.08944999 0.22227731 -0.08354498 0.19879217 -0.09313182
-0.1014478 -0.06739668 0.051269084 -0.073189974 0.28888535 -0.047524374 0.0586564 0.017968334

feature0.8.running_var f4 [32]
00000000: ea99 243e 613b 333e 1df6 623e 0ac6 143e
00000010: 11ed 0b3e 1a78 b83d 7fa5 603e b6b6 533e
00000020: a7e6 263e 5d9b 0a3e 233d f83d 2295 e93d
00000030: 4664 943e a68b d83d 4c8a 2b3e a3e4 293e
00000040: 243e 293e 2468 b43e 819a 0f3e 45dd 143e
00000050: 6f08 933e a1c4 f43d f912 4d3e 2505 f53d
00000060: 6a1f 343e 25cb 133e fa55 123e 6406 0a3e
00000070: 8122 aa3e 7ce9 ec3d 8035 0a3e 1382 183e
0.16074339 0.1750312 0.22164197 0.14528671 0.13664652 0.090072826 0.21938132 0.20675167
0.16298924 0.13535829 0.12121036 0.11405398 0.28982753 0.10573511 0.16751975 0.16591124
0.16527611 0.35235703 0.14023782 0.14537533 0.28717372 0.119515665 0.20026769 0.11963872
0.17590109 0.14432962 0.1429061 0.13479 0.3322945 0.11567971 0.13496971 0.1489337

feature0.10.weight f4 [32, 32, 3, 3]
00000000: 2663 89bc 8090 c53c 2ebe 9bbc 5a8e 533d
00000010: 3257 5bbc 918e 3f3d 5ea4 4dbd 97e3 593d
00000020: c890 143d a486 abbc ef97 cabc e88d 543d
00000030: 5317 4ebd 1960 1a3d de98 bdbc aa43 b83c
00000040: fbb1 e73c 74ba 24bd d15e d6bc 6e57 0b3c
00000050: 9cd3 4e3c efef 003d bc1b 6ebd 7105 313d
00000060: 8e04 fbbc ef1a 0f3d 2768 ad3a d7f4 b0bb
00000070: 39af 253d c23e f83c cd15 2fbd 4cd3 ddbb
00000080: ad31 bd3c ac06 6c3d 0fcb 013c f576 363d
00000090: 39f1 133c bb4b ff3c e3cf 8cbd 7b65 a8bd
000000a0: f6f5 46bb 36ef 943b 447d 98bc 3526 953c
000000b0: 5c93 86bc 798a f2bc 7825 12bd 5b67 33bc
000000c0: 26a5 833c f71a d13b 51fb 4abd 442f 83bd
000000d0: b3f6 0fbc dd00 2fbd 0339 823d aa4e a7bb
000000e0: b256 ed3c 3699 773d 2af4 80bc fdde 4f3d
000000f0: 841b 3a3d afe7 aebc 84e7 e63c 8ac0 55bd
00000100: 2e67 db3c 6f3d 193d 5b3e 6bbd ad47 74ba
00000110: 68cc 303d c0c5 5d3a d0af 0dbd b1e0 d6bc
00000120: 968c 0a3d 83e9 1a3d 816d 74bc 90b0 ddbc
00000130: 8fe6 1d3d 8c82 0bbd 4229 2b3d 27c4 603d
00000140: 50b4 783c 594e 4abc 89ff c33b 93cf 063c
00000150: 5868 ad3a a412 94bc 7e69 043d 0efa 09bc
00000160: 1e64 9bbd cdd9 0b3d 08f1 773d a02d f2bc
00000170: 5fc5 ae3c 433d 103d d9a3 143d b5f9 d0bb
00000180: b7d9 f73c 326b b13c 5c75 813d 7ddc 0ab9
00000190: b0dc f8bc 7aab 19bd e87d 91ba f7b8 1dbc
000001a0: ec77 cc3c 3c31 76bd 3cc6 7fbb fd31 44bd
000001b0: e6ec 71bd e7eb 4abd 63c4 283d d93e 81bd
000001c0: b074 67bd 115c 223d 6bb8 d1bc 9b3a b0bb
000001d0: c7b5 77bc bfac 00bd 1dcc 3d3d 8ea8 67bd
000001e0: 8057 453c 5bef 103d a3b4 c9bc a5a6 1dbd
000001f0: 83ab 0d3d f63c 843c 5d9f 493c 7cf0 51bd
00000200: 039d 6cbd 564d 47bd 0958 4dbc 0750 0b3d
00000210: f8cd 793b 01d8 dd3c 7344 9cbc 5599 80bd
00000220: 7866 59bc 4f99 f2bc 2a03 e239 78e5 1a3b
00000230: 5a2f 9539 10b9 d93c 0948 a3bc 54f2 f13c
00000240: 04e6 c7ba b2c6 ac3c 0775 183d 9d77 c6bc
00000250: f273 683d 86b2 8fbc 1dba 50b9 9823 063c
00000260: e465 473d f4fb 043c a3be 71bc 8062 d3bc
00000270: 8982 4abd a946 313c 2910 77bd bca1 1a3d
00000280: e299 83bd 439c 3a3d f0b9 b13c 5e3e ae3c
00000290: fa5d fcbc eb50 f9bc a92d cc3b ace4 743c
000002a0: 10bf ae3c 6258 bcbc 2a41 ad3b f1f4 a7bc
000002b0: ef0e 8e3a 3e53 cb3c a8e1 b43b 192d b4bc
000002c0: cd28 f93c dff1 13bd 27e9 583c 418c fe3c
000002d0: 4c50 9f3c b55c b7bc c25a 48bd d27a 483c
000002e0: 9b08 0cbd 212a 5bbd 7434 d33c 3670 1bbd
000002f0: 4897 eebc 6e42 9cbd f63c 75bc 9c66 10bd
00000300: 9a74 6e3c 17d0 87bb 5a0b 0f3d 161a 73bd
00000310: 614b 0e3d 1fb2 b4bb 9c28 293d f7d1 17bd
00000320: 3778 20bc 8ba1 193c 3ab2 6cbc 1e2a 1ebd
00000330: a36c 3bbd 776d 033c 6121 4bbd a572 683c
00000340: 0b64 103d b0e4 5bbd 8f9f 7a3c b6b3 ebbc
00000350: 8c23 003d 3aa4 32bd 59c3 713c d62d f7bc
00000360: 9e79 1abd 1cdd b03c 84d9 1abd 8fe4 04bc
00000370: 3432 703d 3670 bfbc 3081 b33c c6e6 1e3d
00000380: 8805 3ebb ec4b f7bc 60e0 d43c 695c 4b3d
00000390: 1c3b 71bd e5ca aa3c e614 143c 831e 75bd
000003a0: bcd1 20bd 30c5 113d 5b8c 0f3b e013 ecbc
000003b0: fdb9 9b3c 1fe9 7b3b f050 41bc 8299 37bc
000003c0: 7090 eb3c ad4a 80bd f9ad 26bd 5001 79bd
000003d0: 8c21 79bd 7b43 683c 6f68 ce3a d667 1dbd
000003e0: 86e0 413c 3038 3cbd 0581 4e3d 89c6 0a3d
000003f0: 57eb 163d df9e ee3c 907c 6abd 1e37 0d3d
-0.01677091 0.024116755 -0.019011583 0.05164943 -0.013387488 0.04676682 -0.05020558 0.053195562
0.036270887 -0.020938225 -0.02473065 0.051893145 -0.050315212 0.037689302 -0.023144182 0.022493202
0.02828311 -0.040216878 -0.026168259 0.008504732 0.012623694 0.03147882 -0.05813192 0.04321808
-0.03064182 0.034937795 0.0013229892 -0.005400281 0.04045031 0.030303363 -0.0427454 -0.0067695733
0.023094976 0.05762355 0.007921948 0.04454704 0.00902968 0.03116404 -0.06875589 -0.08222481
-0.0030359006 0.0045451177 -0.018614419 0.018206695 -0.016427688 -0.029607045 -0.035680264 -0.010949935
0.01606996 0.0063813883 -0.04955608 -0.064054996 -0.008786845 -0.042725433 0.0635853 -0.005105813
0.028972004 0.060448848 -0.015741426 0.050749768 0.045436397 -0.02135071 0.028186567 -0.052185573
0.026782598 0.037412103 -0.057432514 -0.0009318542 0.043163687 0.0008459948 -0.034591496 -0.026230188
0.03382548 0.03782035 -0.014918686 -0.02706173 0.038549956 -0.034060046 0.041787393 0.054874565
0.015179709 -0.012347781 0.00598139 0.0082282005 0.0013229949 -0.018075295 0.032327168 -0.008421434
-0.07587455 0.034143258 0.0605326 -0.029562771 0.021334348 0.035214674 0.03628907 -0.0063774236
0.030255182 0.02165756 0.06321213 -0.00013242844 -0.03037867 -0.03751705 -0.0011100145 -0.009626619
0.024959527 -0.060105547 -0.003902807 -0.047899235 -0.059063815 -0.04954138 0.041202914 -0.06310815
-0.056507766 0.039638583 -0.025600633 -0.00537808 -0.015119023 -0.031414744 0.046337236 -0.05655723
0.012044787 0.035384517 -0.024622267 -0.038489003 0.034587394 0.01614235 0.012306062 -0.051254734
-0.057766926 -0.048657738 -0.012533196 0.034011867 0.0038117152 0.027080538 -0.019075608 -0.06279246
-0.013269059 -0.029614119 0.00043108437 0.002363531 0.00028454774 0.026577502 -0.01993181 0.029534496
-0.0015251045 0.021090839 0.03722098 -0.024226958 0.0567512 -0.017541181 -0.00019905758 0.008187197
0.048681155 0.008116711 -0.014754924 -0.025803804 -0.049440894 0.010820069 -0.060318146 0.0377519
-0.06425835 0.04555918 0.021695107 0.021269973 -0.03080653 -0.030434093 0.006231029 0.014947098
0.02133134 -0.022991363 0.005287309 -0.02050254 0.0010838191 0.024819966 0.0055200644 -0.02199416
0.030414963 -0.036119338 0.013239182 0.031072738 0.019447468 -0.022383073 -0.04891468 0.012236314
-0.034187894 -0.053506974 0.025781848 -0.03794881 -0.02912487 -0.07629858 -0.0149681475 -0.035254106
0.014554167 -0.0041446793 0.034922935 -0.05935105 0.034739856 -0.0055143978 0.041298494 -0.037065472
-0.009794286 0.009376894 -0.014446789 -0.038614385 -0.0457579 0.008021704 -0.04959238 0.01418749
0.03525166 -0.05368489 0.015296831 -0.028772216 0.0312839 -0.04361365 0.014756047 -0.030173223
-0.03771364 0.021589808 -0.037805095 -0.008111133 0.058641627 -0.023368936 0.021912187 0.0387943
-0.0028994996 -0.03018757 0.025985897 0.049648676 -0.05889426 0.0208487 0.009038186 -0.05984355
-0.03926252 0.035588443 0.0021903727 -0.02881807 0.019009585 0.0038438512 -0.011799082 -0.011206033
0.028755397 -0.06264243 -0.040693257 -0.060792267 -0.06082301 0.014176245 0.0015747676 -0.038429104
0.011833316 -0.045952022 0.05041601 0.033880744 0.03684553 0.02912849 -0.0572477 0.034476392

feature0.10.bias f4 [32]
00000000: 3962 6b37 d917 3d38 975e 1db5 bf22 73b7
00000010: 7d07 5136 3391 b3b6 f34b 0d35 25d1 eeb5
00000020: 4ae9 1e37 f6fb a435 431c 35b8 bc6d beb7
00000030: e0d0 c434 0728 14b7 b3d4 be35 ce7e b9b6
00000040: e7ba ea36 1f8e b036 9603 70b6 f84b bb37
00000050: e5bc 7538 d8a6 1cb6 7699 8637 412f 60b6
00000060: 4da2 b035 6e96 52b7 97e3 cc36 f40b 0737
00000070: 6409 66b6 ce7a 5736 0968 3937 ea7f 34b7
1.4029961e-05 4.508332e-05 -5.8624704e-07 -1.4492019e-05 3.1147786e-06 -5.351519e-06 5.2637114e-07 -1.7793251e-06
9.471851e-06 1.2292282e-06 -4.3180084e-05 -2.2700864e-05 3.6659821e-07 -8.830807e-06 1.4218007e-06 -5.5281917e-06
6.9955017e-06 5.261754e-06 -3.5764874e-06 2.2327513e-05 5.8588474e-05 -2.3342927e-06 1.6045506e-05 -3.3406106e-06
1.3160258e-06 -1.2552e-05 6.1061687e-06 8.04941e-06 -3.4278137e-06 3.2108978e-06 1.1051082e-05 -1.0758618e-05

feature0.11.weight f4 [32]
00000000: 4c26 7e3f 00f6 7f3f 3432 763f ce7a 7f3f
00000010: 40ab 7d3f 2f0f 7c3f ccd3 7f3f 1168 733f
00000020: ff76 733f 29ff 783f ef44 7b3f a564 7e3f
00000030: 9f19 793f bfc1 7a3f c25c 833f d928 7a3f
00000040: 080a 773f 0b45 7d3f 0e39 823f d561 7d3f
00000050: 4037 6d3f 8d59 783f df2a 7f3f 7ea2 7a3f
00000060: 3e72 733f 76f2 7a3f e144 803f a52b 773f
00000070: e0f4 7c3f 6e3d 803f 6cbc 7d3f b3c7 7e3f
0.99277186 0.9998474 0.96170354 0.9979676 0.9908943 0.9846067 0.9993255 0.9508067
0.9510345 0.97264344 0.9815206 0.9937232 0.9730472 0.97951883 1.0262682 0.9771858
0.9649968 0.98933476 1.0173662 0.98977405 0.9266243 0.97011644 0.9967479 0.97904193
0.95096195 0.98026216 1.002102 0.9655097 0.9881115 1.0018747 0.99115634 0.99523467

feature0.11.bias f4 [32]
00000000: f039 c4bc 8f99 47bd 4adc fabc 69ce efbb
00000010: 8473 0cbd ddcc b4bb f6c3 6ebd 5d49 04bd
00000020: 3cc0 c7bc 1779 bfbb c39d 0cbd 0abd 81bc
00000030: bc59 bfbc ae76 40bc fe26 d8bd 0653 56bc
00000040: 35c4 8bbc 6c95 1cbd 8d8d d5bc eeb7 8bbd
00000050: 622a 61bc e923 67bd fc2c 5bbc 50d4 f83b
00000060: cb0f 41bd 3d74 06bd 21db 1bbd e4e3 4fbc
00000070: 182d 58bd 0aba 81bd c32f 8bbc 0168 bdbc
-0.023953408 -0.04873043 -0.03062262 -0.007318307 -0.03428985 -0.0055175857 -0.05829235 -0.032296527
-0.024383657 -0.0058432925 -0.03433014 -0.015837211 -0.023358218 -0.011747045 -0.10554312 -0.013081318
-0.017061332 -0.038228437 -0.026068473 -0.06822191 -0.013743015 -0.05643073 -0.013377424 0.007593669
-0.047134202 -0.032825697 -0.038050774 -0.012688611 -0.05277738 -0.06334312 -0.016990548 -0.023120882

feature0.11.running_mean f4 [32]
00000000: eb7d 54be 6392 30be 5a65 b5be 3e8b 603d
00000010: dd3d 05be 276f fcbe 0a04 5ebe 955f a63e
00000020: 045f 0dbe 79b3 c43e 26f0 2abe aa7d bebe
00000030: fdfe 1e3f a89a 12be 74ce 03be bcd7 263e
00000040: 2662 68be 7852 86be c550 ec3d 499d 13be
00000050: 8e4a 73be fbd2 27be cd8e efbb 5ba4 b0bb
00000060: 542d e03d fa59 243e 175a 063d ccdc 1fbe
00000070: a555 a3be f898 bbbe fe1b 9abe 9766 a6bd
-0.20751159 -0.17243342 -0.35428888 0.05482029 -0.1301188 -0.49303553 -0.21681228 0.32494798
-0.13805777 0.38418177 -0.16693172 -0.3720525 0.6210783 -0.14316809 -0.12871724 0.16293234
-0.2269369 -0.26234794 0.11538843 -0.14415468 -0.23758909 -0.16389076 -0.0073107244 -0.0053906864
0.10946146 0.16049948 0.03280076 -0.15611571 -0.3190128 -0.36640143 -0.3009948 -0.08125036

feature0.11.running_var f4 [32]
00000000: 586a 4a3e b6f4 b53d cd82 fb3d 7da3 633d
00000010: 80e3 343e 591e 603e 8b57 2d3e 2bd3 953d
00000020: 8632 093e 1879 063e 7622 073e 9a27 5c3e
00000030: 6c9b 543e 13e0 303e b6bb 863d 87a8 f53d
00000040: 599e 243e be97 2a3e f6f7 d83d 9f73 cd3d
00000050: d5ba 323e 7f65 f33d b108 f43d 8ad3 053e
00000060: 7d90 dc3d 13a5 033e 70d9 e03d c7e6 2e3e
00000070: e3e2 033e c00d 5c3e ab4f 3f3e 68e2 203e
0.1976713 0.088845655 0.12280808 0.055575836 0.1766491 0.21886577 0.16927926 0.07315668
0.1339818 0.13132131 0.1319674 0.21499482 0.20762414 0.17272978 0.06578772 0.11995035
0.1607603 0.16659448 0.1059417 0.100318186 0.17454083 0.11884593 0.1191572 0.13068977
0.107697465 0.1285594 0.10978973 0.17080222 0.12879519 0.2148962 0.18682735 0.15711367

feature0.15.weight f4 [64, 32, 3, 3]
00000000: 0867 01bd 4d17 ad3c 7897 143d 1ea9 48bd
00000010: 1b46 26bd ddf1 01bd 00bd 18bd b8e8 3ebd
00000020: 5d74 1a3c a408 76bd d059 a3bb 9ba4 f2bc
00000030: d5f3 38bd a164 683c f6be 0cbd ae5b b9bc
00000040: 801d 04bd 3800 8b3c f475 5abd acb8 02bd
00000050: 1b1f 943b 0ba9 21bd a8ba 5b3b d1c1 68bc
00000060: 995e 5bbd bd0e 3abd 8d8e 6dbd 7531 703d
00000070: a977 243c f206 1f3d 83b8 a3bc 5130 833c
00000080: 4ca1 d4bc e804 0f3d 13ea 453d f539 de3b
00000090: c99f dd3c 86ba a93c dffe 263d 5179 9fbc
000000a0: a393 ce3c fa62 75bd 710c 19bd 1705 88bb
000000b0: 2a70 5f3c 36ef 053a 782b d9bc 0778 193d
000000c0: 3f2c 20bc 5cf7 cabc 2fb3 87b8 b69d d8bc
000000d0: ce90 42bd c5b7 f33c bd25 43bc d599 513d
000000e0: 32f2 1e3d de82 e33c 6781 f23c fc6d 423d
000000f0: b3e3 013d d669 363d 72ab 01bd dda6 2d3d
00000100: 1f54 bdbb 3f07 0b3d 79cf 3a3d a19a 6abd
00000110: af01 c23b 4387 06bd 8caf e23b 7c67 823c
00000120: 5293 4cbc b1a2 3b3d 7cfa d7bc 3576 143d
00000130: f61f 20bc 4437 38bc 8379 203d eedb 87bc
00000140: 496b 84bd 25c7 a9bb 3650 1cbd be05 953c
00000150: 951e 5bbd 9975 9cbc caf1 43bd 0fa5 d73b
00000160: 42ba 18bd a15d 4e3d 07b7 b63c 8147 3e3d
00000170: b8b8 763d ca7b aa3c 66f5 18bd 2445 ddbb
00000180: 7546 acbc a064 e2ba a598 033d 7e49 713d
00000190: 1d55 06bd 3f29 873d aa5b 393d 6ae8 2bbc
000001a0: 7c90 0bbd 8551 913c e04f 473d d1b0 5c3d
000001b0: de0f 103c 2785 70bd 6bdd 743a 593c f93c
000001c0: aa7e 0fbc 385e 27bd ea20 abbc bc77 f2bc
000001d0: 2dd2 32bd 8370 18bd 5405 44bc 909c bf3c
000001e0: a970 1dbd f0d7 353c a137 90bb f893 ee3c
000001f0: 47cd aa3c bbf8 8ebc a03a 8cbd 37a6 77bc
00000200: 91d9 14bd a167 83bc 8d4f 773d 9696 b4bc
00000210: fa42 a33d c99a 58bd aaa9 85bc 9c2d e3bc
00000220: d6de 443d f2f2 88bc 4ddf 0ebd e264 c43c
00000230: 6f44 57bd 0fec 44bd 542f 5fbc 9a87 7b3c
00000240: 8535 6abd 3a42 183d 77c1 46bd 7d58 cf3a
00000250: 863c 0abd 636f 283a 6fc6 9dbc 973e 93bc
00000260: 80f7 92bc e7fd 9b3b 2b5a 82bc 1284 663d
00000270: f819 573d beba 623c 51ef 1f3d 4a51 5cbc
00000280: 1520 09bd 42cb 813d 25c3 3dbc 130f d9bc
00000290: fdd2 0abd ac86 02bd a6a9 97bc e0cd 983b
000002a0: 1103 24bd 3e42 10bd 9aec 7dbc 06cc fe3c
000002b0: 70ea d9bc 13cc 623d b4e2 10bd f6ce 173d
000002c0: 2a7e 013d cdf2 0b3d 2af7 c33c 432e d8bc
000002d0: 022e 68bd d85f 86bc 5ec5 f83c 0ac1 7dbd
000002e0: 34ae ee3b 6ee7 f23c 6d86 01bc 0cb4 32bc
000002f0: d8b5 79bc 7aad 283d dc27 1ebc 2fc1 33bb
00000300: 7a40 09bd bc0e 13bd b6fa e2bc 8940 2d3d
00000310: 8166 33bc 2493 08b9 c839 fdb9 0552 713c
00000320: 9026 e63c 6af5 11bb d30d 0a3d e5da 753c
00000330: c4f0 063d 532a 4d3d 1176 2c3d c668 d9bc
00000340: 3826 efbc c8e0 0fbd c136 06bd cbe2 253b
00000350: 5bd3 e93a fe75 88bd 332a 52bd cdc3 5ebc
00000360: c3fb 30bd 08b2 09bd f5e2 a83b 7d6c 713c
00000370: b43b 0a3b 21db dabc 8b7e b33c 48cc cfbc
00000380: c854 0dbd 35a6 90bb ca5c d9bb 6d81 39bc
00000390: 9791 2b3c c0dd 07bd e29f 9d3c 8456 423d
000003a0: 07c7 7dbd 6628 263d 493e 153c 27f0 29bd
000003b0: 6245 aebc bec2 18bc 5624 c1bb f34a 21bc
000003c0: 7c3e 093d feae c83b 237a 12bd fdc6 013b
000003d0: fbcc dcbc 7eaf 943c e2be 3cbb a98f a53c
000003e0: 9e6f 493c 314e 0dbd b1ab d43b 1d5f 793c
000003f0: b23b 93bc d864 303d b6dc dcbc 5bff ab3c
-0.0315924 0.021129275 0.036277264 -0.048989408 -0.0405942 -0.0317248 -0.03728962 -0.046608657
0.009427157 -0.060066834 -0.0049850717 -0.029619506 -0.04515441 0.014184148 -0.034361802 -0.022626724
-0.032254696 0.016967878 -0.053335145 -0.031914398 0.0045203096 -0.039467853 0.0033528004 -0.014206366
-0.053557012 -0.04542421 -0.057997275 0.058640916 0.010038295 0.038824983 -0.019985443 0.01601425
-0.025955819 0.03491679 0.048318934 0.0067818114 0.02705373 0.020718824 0.040770408 -0.019467028
0.025216883 -0.059908845 -0.03736538 -0.0041509974 0.013637582 0.00051091926 -0.026509985 0.037467983
-0.009776174 -0.024776153 -6.470677e-05 -0.02644239 -0.047501378 0.029750714 -0.011910853 0.051172096
0.038805194 0.027772363 0.02960272 0.04746817 0.03171129 0.044534527 -0.031657644 0.04239546
-0.0057778503 0.033942457 0.045608018 -0.057276372 0.005920611 -0.03284384 0.0069178995 0.015918486
-0.012486296 0.04580945 -0.026364557 0.036245544 -0.009773245 -0.011243645 0.039178383 -0.016584363
-0.064657755 -0.0051812106 -0.038162433 0.018191215 -0.053495962 -0.019099044 -0.04783801 0.006580956
-0.037287004 0.05038226 0.022304071 0.04645491 0.060234755 0.02081098 -0.037343405 -0.006752627
-0.02102969 -0.001727242 0.032127995 0.05890798 -0.032796014 0.06599664 0.045253433 -0.010492424
-0.034073338 0.017739067 0.04866016 0.053879563 0.0087928455 -0.058720734 0.0009340855 0.030424284
-0.008758226 -0.04086134 -0.020889718 -0.02959811 -0.04365747 -0.037216675 -0.011964161 0.023390085
-0.03843752 0.011098847 -0.0044011627 0.029123291 0.020849837 -0.017452588 -0.06847119 -0.015115312
-0.0363403 -0.016040625 0.0603786 -0.022044461 0.07971759 -0.05288199 -0.016316254 -0.02773171
0.048064075 -0.016717408 -0.034880925 0.023973886 -0.052555498 -0.048076686 -0.013622124 0.015352154
-0.057179946 0.037172534 -0.048524346 0.0015819218 -0.033749126 0.00064252893 -0.01925966 -0.017974181
-0.017940283 0.004760492 -0.015912136 0.056278296 0.052515 0.013838468 0.03904659 -0.013447115
-0.03347786 0.063375965 -0.011582171 -0.026496446 -0.03389262 -0.031866714 -0.018513512 0.004663214
-0.040041987 -0.035219423 -0.015498305 0.031103145 -0.026601046 0.0553704 -0.03537245 0.037062608
0.03161446 0.0341671 0.023921568 -0.026389247 -0.0566845 -0.016403124 0.03036755 -0.061951675
0.00728395 0.02965137 -0.007905585 -0.010907184 -0.015241109 0.041181065 -0.009653058 -0.0027428379
-0.033508755 -0.035902724 -0.027707439 0.042297874 -0.010949732 -0.00013024785 -0.0004829897 0.014729028
0.02809456 -0.0022271522 0.03370459 0.015005802 0.032944456 0.05008919 0.042104784 -0.026539218
-0.029193029 -0.035126477 -0.03276706 0.002531218 0.0017839478 -0.0666313 -0.051309776 -0.013596487
-0.04320885 -0.03361705 0.0051540085 0.014735338 0.0021092715 -0.026715817 0.021910926 -0.025365964
-0.03450468 -0.0044143447 -0.006633376 -0.011322361 0.010471723 -0.03317046 0.019241277 0.04744579
-0.061957385 0.04056587 0.009109088 -0.041488793 -0.021273319 -0.009323774 -0.005894224 -0.009844529
0.033506855 0.0061243763 -0.03576101 0.0019802444 -0.026953211 0.018150087 -0.0028800298 0.020210104
0.012294678 -0.034498397 0.006490194 0.015220431 -0.0179728 0.043064922 -0.026960712 0.020995786

feature0.15.bias f4 [64]
00000000: 73d2 cd34 833a 0237 aa97 8435 b972 a435
00000010: 0e34 b535 6bb7 70b6 31d7 2cb6 9179 5ab5
00000020: 96ee f634 35f0 9c35 2047 53b7 4967 87b6
00000030: 8a48 a0b3 252a c1b3 cfc7 2bb5 b263 fd34
00000040: 4eea 2db3 9514 3137 f319 4636 6210 7533
00000050: 2ae0 39b6 05bc 0336 269a 6635 f93b 2736
00000060: 16cb 8435 0787 8834 3b2f 9bb4 da4d f5b6
00000070: 009b 8c36 58fc 35b7 7c3b 4135 2f81 6537
00000080: 6918 d036 d9d1 fd34 5926 87b6 b99b c035
00000090: ccde 0734 d34f 7435 c0f2 85b4 75bd afb5
000000a0: 5e42 12b5 65c9 8e35 1af3 7234 3344 fbb4
000000b0: bc1c a5b5 5e56 9b35 e94f 0eb6 2775 89b5
000000c0: 6329 c135 682e 1a36 6a92 89b4 ea05 68b6
000000d0: 5130 a1b4 2600 bbb4 5858 87b6 06e9 2cb6
000000e0: 10f2 5835 47ab 01b4 e350 0fb5 3dc3 afb5
000000f0: 962c 1bb6 7570 96b5 f902 7635 3f66 5cb6
3.8337348e-07 7.762227e-06 9.878906e-07 1.2252341e-06 1.3500701e-06 -3.586955e-06 -2.5755255e-06 -8.138823e-07
4.5994665e-07 1.1692815e-06 -1.259314e-05 -4.0353375e-06 -7.4637754e-08 -8.994929e-08 -6.3993224e-07 4.719746e-07
-4.04928e-08 1.0554814e-05 2.9519404e-06 5.7058408e-08 -2.769763e-06 1.9629963e-06 8.590599e-07 2.4919848e-06
9.893872e-07 2.543022e-07 -2.8905365e-07 -7.310632e-06 4.1903695e-06 -1.0847194e-05 7.1984664e-07 1.3679542e-05
6.201725e-06 4.7277607e-07 -4.027778e-06 1.4350436e-06 1.2653908e-07 9.101324e-07 -2.4949804e-07 -1.3093655e-06
-5.4485815e-07 1.0638438e-06 2.2626446e-07 -4.6802015e-07 -1.2301821e-06 1.1573536e-06 -2.1206163e-06 -1.0241391e-06
1.4391666e-06 2.29748e-06 -2.562477e-07 -3.4574136e-06 -3.0023742e-07 -3.4831572e-07 -4.033598e-06 -2.5765635e-06
8.081852e-07 -1.2076372e-07 -5.3389357e-07 -1.3095338e-06 -2.3122752e-06 -1.12086e-06 9.1646467e-07 -3.284207e-06

feature0.16.weight f4 [64]
00000000: 4983 753f 48be 7e3f 9aed 663f 7d07 7e3f
00000010: bcd0 6e3f d5b3 7d3f 6039 773f 7f68 753f
00000020: c635 733f db51 7c3f 29ef 7e3f 9b4f 6d3f
00000030: c062 693f ba82 593f fd15 683f e120 753f
00000040: 69b5 713f 2e8a 7c3f 30ae 763f da87 6d3f
00000050: 4071 783f 7dd8 753f 977e 6c3f e2e1 853f
00000060: 8b10 753f 6f20 5e3f 22a9 743f 2faa 793f
00000070: 2ced 723f 3680 7b3f 81f4 793f becf 7f3f
00000080: 03b6 6a3f 2941 6c3f 8b28 7a3f 1568 7f3f
00000090: 449f 673f c474 703f 1912 713f 0411 743f
000000a0: c732 6f3f c23c 743f 2a83 6c3f a71f 763f
000000b0: adb9 793f 92d3 6e3f d7c4 643f fedb 683f
000000c0: 467e 7b3f 4a32 803f 15f2 683f d709 743f
000000d0: 4092 743f deb2 7c3f aae3 723f 415f 6b3f
000000e0: 2009 743f f53a 663f 79c8 653f ea51 783f
000000f0: 5407 6e3f 7a77 6b3f 6b7c 803f 35ab 7a3f
0.9590345 0.99509096 0.902063 0.99230176 0.93287253 0.99102527 0.9657192 0.95862573
0.95003927 0.985624 0.9958368 0.92699593 0.91166306 0.849651 0.9065855 0.95753294
0.94417435 0.98648345 0.9635954 0.9278542 0.97047806 0.9603346 0.9238066 1.0459559
0.9572837 0.8676824 0.95570576 0.97525305 0.94893146 0.9824251 0.9763871 0.99926364
0.9168398 0.92286927 0.97718114 0.9976819 0.90477395 0.9392817 0.9416824 0.95338464
0.93436855 0.9540521 0.9238764 0.9614205 0.97548944 0.9329158 0.89362854 0.9096068
0.9823955 1.0015347 0.9099439 0.95327514 0.9553566 0.9871043 0.9487864 0.9194222
0.95326424 0.8993371 0.8975902 0.9699999 0.9297993 0.9197918 1.0037969 0.9791749

feature0.16.bias f4 [64]
00000000: a6b2 8ebd a2e8 5dbc 9dac 8abc dd9e afbc
00000010: cf67 a4bd 4c5a a5bd fac6 60bd 6b1e 95bc
00000020: f165 38bc 8025 79bc 5a40 e23b 636e 88bd
00000030: 43f6 79bd c6db 8abd c313 22bd 2a88 343a
00000040: 722e f6bb d7a7 15be 5173 24bd 8dfb 07bd
00000050: dfb2 d23c 1b47 b03b c80b dbbc 6583 74bd
00000060: 99fd 59bd d955 d3bc 4801 78bb ac7a 08bc
00000070: 245b 1dbd 5557 86bc 6471 a5bc 374d edbb
00000080: 552e 44bd 357b 5dbc c9aa dfbd 2caf eabd
00000090: 164b cdbc 603a ccbc 0acc 933b d7ad 24bd
000000a0: e8ae fabc 2c02 a8bc 6d13 f8bb c939 2bbc
000000b0: e56a 71bc ec38 2ebd 06fb 8dbc 6341 6bba
000000c0: 3438 ebbc ef16 bbbc f27a d9bc 209e ecbc
000000d0: 7d5b 6ebb 5d10 82ba fff1 db3b 9493 08bc
000000e0: 5f71 85bc 549a dabc d58e 90bc 01cc babc
000000f0: 17dc cdbc b2b9 fd3b b091 0cbe d723 73bd
-0.06967668 -0.0135442335 -0.016928012 -0.021438057 -0.080276124 -0.080738634 -0.05487726 -0.018202981
-0.0112547735 -0.015206695 0.006904644 -0.066616796 -0.06102587 -0.067802 -0.039569627 0.0006886745
-0.007512861 -0.14614807 -0.040149037 -0.033198882 0.025720058 0.00537957 -0.026739016 -0.05969562
-0.053220365 -0.025797771 -0.003784256 -0.0083300285 -0.038416997 -0.016399065 -0.02019567 -0.0072418707
-0.04789575 -0.013518144 -0.109212466 -0.11459193 -0.025060218 -0.02493018 0.0045104073 -0.04020485
-0.03060098 -0.020508848 -0.007570675 -0.010450789 -0.014734958 -0.042534754 -0.017331611 -0.0008974282
-0.028713323 -0.022838084 -0.026547883 -0.028883994 -0.003637045 -0.000992309 0.006712198 -0.008335967
-0.016289411 -0.026684918 -0.017646233 -0.022802355 -0.025129361 0.007743084 -0.1372745 -0.05936035

feature0.16.running_mean f4 [64]
00000000: cecb 85be 159e debe 7a4d 35bf 3184 58be
00000010: 4141 fdbe 2efd b13b 57f9 77be dfdc ecbe
00000020: 4973 573f 1243 06bf 71b1 1abe 1bdb fdbc
00000030: 1a5d 2fbf 3304 43bf 3f21 24bf e21d d83f
00000040: 1493 e13f 0114 6fbe 2cc4 26bf 0259 a53f
00000050: 3dad 44bf 7a1e 49bf a46f 3cbf eebc e4bd
00000060: cbab b4be b9c5 fbbe 9dba ef3f 6acb 33be
00000070: 414e 7f3e 2bf8 fabe 59ee 35bf abd4 d0be
00000080: a3c4 aabe b579 44bf ea86 f3be 8156 41be
00000090: 4374 17bf c0ce 07bf d44f 973f 8eb6 b5be
000000a0: 4e92 1bbf 1efa 31be 11d4 993f b162 bebe
000000b0: 021a 2abf 4341 d1be 57c0 b03f f3f0 aa3f
000000c0: 40f7 90be 75ac 6abe e2c9 55bf 380a 49be
000000d0: 261d e53f 37d6 43be 8fe7 073f d662 47bf
000000e0: b95f a7be a27c 22bf 4851 f9be e1c2 e6be
000000f0: 3331 cabe f600 2c3f b3ca 52be ea94 28bf
-0.26132053 -0.43479982 -0.70821345 -0.21144177 -0.49463847 0.0054317927 -0.2421621 -0.4626226
0.84160286 -0.5244609 -0.15106751 -0.030988267 -0.68501437 -0.7617828 -0.6411323 1.688412
1.762301 -0.23347475 -0.65143085 1.2917788 -0.7682684 -0.7856213 -0.7360785 -0.11168848
-0.35287318 -0.49174288 1.8728825 -0.17558065 0.24932195 -0.49017462 -0.71066815 -0.40787253
-0.33353147 -0.7674821 -0.4756387 -0.18880655 -0.59161776 -0.5304985 1.1821237 -0.3549084
-0.6077012 -0.17380568 1.2017843 -0.3718467 -0.66445935 -0.40870103 1.3808697 1.3354782
-0.28313637 -0.2291735 -0.83511174 -0.19632804 1.789952 -0.19124685 0.53087705 -0.77885187
-0.32690218 -0.63471425 -0.48694825 -0.45070556 -0.3949066 0.67188966 -0.20585136 -0.65852225

feature0.16.running_var f4 [64]
00000000: b070 2b3e 7703 8b3e 907d 023f f444 7d3e
00000010: 4b60 5b3e 4035 313e d9f7 063e 871c 713e
00000020: ae3a 633f bf9e 743e 70f8 383e e275 1c3e
00000030: 22af b13e c8a4 c53e a138 8a3e d0d1 653f
00000040: 4e28 933f 142b 0f3e dfd3 9c3e a04c ec3f
00000050: 3a2d ab3e 301a 793e 64f4 f03e 8069 1d3e
00000060: 5e97 0f3e 0974 403f 7b8a 793f ef47 8e3e
00000070: 3cc7 393e d452 2b3e 8db6 693e f84f 9f3e
00000080: f4e5 643e 36c0 083f 552c 323e 98bf 193e
00000090: daa9 213f 8663 df3e a78e b63f f82f 153e
000000a0: 1f32 403e 177b 8e3e 16e1 be3f d6c7 383e
000000b0: 11c6 393e 4cd4 5e3e 3c89 bf3f 55de b93f
000000c0: d459 413e a772 523e fb47 fc3e 1a91 8f3e
000000d0: 4a20 8a3f 3694 773e a526 9e3f d5b0 823e
000000e0: 5476 ad3e c7ae 1f3f 2406 c83e ebe7 8d3e
000000f0: a2b7 ad3e 00a6 653f b8b4 093e 388e 413e
0.16742206 0.2715108 0.50972843 0.24733335 0.21423452 0.1730547 0.13180484 0.23546039
0.88761413 0.23888682 0.18063521 0.15279344 0.34703928 0.3860228 0.2699633 0.89773273
1.1496675 0.13981277 0.30630395 1.8460884 0.33432943 0.24326396 0.47061455 0.15372276
0.14022586 0.75177056 0.9747693 0.27789256 0.18142408 0.16730815 0.22823544 0.311157
0.22353345 0.5341829 0.17399724 0.15014493 0.631498 0.43630618 1.4262284 0.1456908
0.1876912 0.27828285 1.4912441 0.18044981 0.18141963 0.21760672 1.4963756 1.4520975
0.18881923 0.20551549 0.49273667 0.2804039 1.0791104 0.24177632 1.2355543 0.25525537
0.3387934 0.62376064 0.39067185 0.27716002 0.33929163 0.8970642 0.13447845 0.18901908
